…
2025-04-17 12:12:39,205 - root - INFO - config file: /home/ambuja/miniconda3/envs/emo-tts-new/lib/python3.8/site-packages/espnet_model_zoo/9366b56e39a93ce1189ae2a3fccb1475/exp/lm_train_lm_transformer2_bpe5000_scheduler_confwarmup_steps25000_batch_bins500000000_accum_grad2_use_amptrue/config.yaml
2025-04-17 12:12:40,029 - root - INFO - Vocabulary size: 5000
2025-04-17 12:12:40,033 - root - INFO - encoder self-attention layer type = self-attention
2025-04-17 12:12:40,443 - espnet2.bin.asr_inference - INFO - Beam_search: BeamSearch(
  (nn_dict): ModuleDict(
    (decoder): TransformerDecoder(
      (embed): Sequential(
        (0): Embedding(5000, 512)
        (1): PositionalEncoding(
          (dropout): Dropout(p=0.1, inplace=False)
        )
      )
      (after_norm): LayerNorm((512,), eps=1e-12, elementwise_affine=True)
      (output_layer): Linear(in_features=512, out_features=5000, bias=True)
      (decoders): MultiSequential(
        (0): DecoderLayer(
          (self_attn): MultiHeadedAttention(
            (linear_q): Linear(in_features=512, out_features=512, bias=True)
            (linear_k): Linear(in_features=512, out_features=512, bias=True)
            (linear_v): Linear(in_features=512, out_features=512, bias=True)
            (linear_out): Linear(in_features=512, out_features=512, bias=True)
            (dropout): Dropout(p=0.1, inplace=False)
            (q_norm): Identity()
            (k_norm): Identity()
          )
          (src_attn): MultiHeadedAttention(
            (linear_q): Linear(in_features=512, out_features=512, bias=True)
            (linear_k): Linear(in_features=512, out_features=512, bias=True)
            (linear_v): Linear(in_features=512, out_features=512, bias=True)
            (linear_out): Linear(in_features=512, out_features=512, bias=True)
            (dropout): Dropout(p=0.1, inplace=False)
            (q_norm): Identity()
            (k_norm): Identity()
          )
          (feed_forward): PositionwiseFeedForward(
            (w_1): Linear(in_features=512, out_features=2048, bias=True)
            (w_2): Linear(in_features=2048, out_features=512, bias=True)
            (dropout): Dropout(p=0.1, inplace=False)
            (activation): ReLU()
          )
          (norm1): LayerNorm((512,), eps=1e-12, elementwise_affine=True)
          (norm2): LayerNorm((512,), eps=1e-12, elementwise_affine=True)
          (norm3): LayerNorm((512,), eps=1e-12, elementwise_affine=True)
          (dropout): Dropout(p=0.1, inplace=False)
        )
        (1): DecoderLayer(
          (self_attn): MultiHeadedAttention(
            (linear_q): Linear(in_features=512, out_features=512, bias=True)
            (linear_k): Linear(in_features=512, out_features=512, bias=True)
            (linear_v): Linear(in_features=512, out_features=512, bias=True)
            (linear_out): Linear(in_features=512, out_features=512, bias=True)
            (dropout): Dropout(p=0.1, inplace=False)
            (q_norm): Identity()
            (k_norm): Identity()
          )
          (src_attn): MultiHeadedAttention(
            (linear_q): Linear(in_features=512, out_features=512, bias=True)
            (linear_k): Linear(in_features=512, out_features=512, bias=True)
            (linear_v): Linear(in_features=512, out_features=512, bias=True)
            (linear_out): Linear(in_features=512, out_features=512, bias=True)
            (dropout): Dropout(p=0.1, inplace=False)
            (q_norm): Identity()
            (k_norm): Identity()
          )
          (feed_forward): PositionwiseFeedForward(
            (w_1): Linear(in_features=512, out_features=2048, bias=True)
            (w_2): Linear(in_features=2048, out_features=512, bias=True)
            (dropout): Dropout(p=0.1, inplace=False)
            (activation): ReLU()
          )
          (norm1): LayerNorm((512,), eps=1e-12, elementwise_affine=True)
          (norm2): LayerNorm((512,), eps=1e-12, elementwise_affine=True)
          (norm3): LayerNorm((512,), eps=1e-12, elementwise_affine=True)
          (dropout): Dropout(p=0.1, inplace=False)
        )
        (2): DecoderLayer(
          (self_attn): MultiHeadedAttention(
            (linear_q): Linear(in_features=512, out_features=512, bias=True)
            (linear_k): Linear(in_features=512, out_features=512, bias=True)
            (linear_v): Linear(in_features=512, out_features=512, bias=True)
            (linear_out): Linear(in_features=512, out_features=512, bias=True)
            (dropout): Dropout(p=0.1, inplace=False)
            (q_norm): Identity()
            (k_norm): Identity()
          )
          (src_attn): MultiHeadedAttention(
            (linear_q): Linear(in_features=512, out_features=512, bias=True)
            (linear_k): Linear(in_features=512, out_features=512, bias=True)
            (linear_v): Linear(in_features=512, out_features=512, bias=True)
            (linear_out): Linear(in_features=512, out_features=512, bias=True)
            (dropout): Dropout(p=0.1, inplace=False)
            (q_norm): Identity()
            (k_norm): Identity()
          )
          (feed_forward): PositionwiseFeedForward(
            (w_1): Linear(in_features=512, out_features=2048, bias=True)
            (w_2): Linear(in_features=2048, out_features=512, bias=True)
            (dropout): Dropout(p=0.1, inplace=False)
            (activation): ReLU()
          )
          (norm1): LayerNorm((512,), eps=1e-12, elementwise_affine=True)
          (norm2): LayerNorm((512,), eps=1e-12, elementwise_affine=True)
          (norm3): LayerNorm((512,), eps=1e-12, elementwise_affine=True)
          (dropout): Dropout(p=0.1, inplace=False)
        )
        (3): DecoderLayer(
          (self_attn): MultiHeadedAttention(
            (linear_q): Linear(in_features=512, out_features=512, bias=True)
            (linear_k): Linear(in_features=512, out_features=512, bias=True)
            (linear_v): Linear(in_features=512, out_features=512, bias=True)
            (linear_out): Linear(in_features=512, out_features=512, bias=True)
            (dropout): Dropout(p=0.1, inplace=False)
            (q_norm): Identity()
            (k_norm): Identity()
          )
          (src_attn): MultiHeadedAttention(
            (linear_q): Linear(in_features=512, out_features=512, bias=True)
            (linear_k): Linear(in_features=512, out_features=512, bias=True)
            (linear_v): Linear(in_features=512, out_features=512, bias=True)
            (linear_out): Linear(in_features=512, out_features=512, bias=True)
            (dropout): Dropout(p=0.1, inplace=False)
            (q_norm): Identity()
            (k_norm): Identity()
          )
          (feed_forward): PositionwiseFeedForward(
            (w_1): Linear(in_features=512, out_features=2048, bias=True)
            (w_2): Linear(in_features=2048, out_features=512, bias=True)
            (dropout): Dropout(p=0.1, inplace=False)
            (activation): ReLU()
          )
          (norm1): LayerNorm((512,), eps=1e-12, elementwise_affine=True)
          (norm2): LayerNorm((512,), eps=1e-12, elementwise_affine=True)
          (norm3): LayerNorm((512,), eps=1e-12, elementwise_affine=True)
          (dropout): Dropout(p=0.1, inplace=False)
        )
        (4): DecoderLayer(
          (self_attn): MultiHeadedAttention(
            (linear_q): Linear(in_features=512, out_features=512, bias=True)
            (linear_k): Linear(in_features=512, out_features=512, bias=True)
            (linear_v): Linear(in_features=512, out_features=512, bias=True)
            (linear_out): Linear(in_features=512, out_features=512, bias=True)
            (dropout): Dropout(p=0.1, inplace=False)
            (q_norm): Identity()
            (k_norm): Identity()
          )
          (src_attn): MultiHeadedAttention(
            (linear_q): Linear(in_features=512, out_features=512, bias=True)
            (linear_k): Linear(in_features=512, out_features=512, bias=True)
            (linear_v): Linear(in_features=512, out_features=512, bias=True)
            (linear_out): Linear(in_features=512, out_features=512, bias=True)
            (dropout): Dropout(p=0.1, inplace=False)
            (q_norm): Identity()
            (k_norm): Identity()
          )
          (feed_forward): PositionwiseFeedForward(
            (w_1): Linear(in_features=512, out_features=2048, bias=True)
            (w_2): Linear(in_features=2048, out_features=512, bias=True)
            (dropout): Dropout(p=0.1, inplace=False)
            (activation): ReLU()
          )
          (norm1): LayerNorm((512,), eps=1e-12, elementwise_affine=True)
          (norm2): LayerNorm((512,), eps=1e-12, elementwise_affine=True)
          (norm3): LayerNorm((512,), eps=1e-12, elementwise_affine=True)
          (dropout): Dropout(p=0.1, inplace=False)
        )
        (5): DecoderLayer(
          (self_attn): MultiHeadedAttention(
            (linear_q): Linear(in_features=512, out_features=512, bias=True)
            (linear_k): Linear(in_features=512, out_features=512, bias=True)
            (linear_v): Linear(in_features=512, out_features=512, bias=True)
            (linear_out): Linear(in_features=512, out_features=512, bias=True)
            (dropout): Dropout(p=0.1, inplace=False)
            (q_norm): Identity()
            (k_norm): Identity()
          )
          (src_attn): MultiHeadedAttention(
            (linear_q): Linear(in_features=512, out_features=512, bias=True)
            (linear_k): Linear(in_features=512, out_features=512, bias=True)
            (linear_v): Linear(in_features=512, out_features=512, bias=True)
            (linear_out): Linear(in_features=512, out_features=512, bias=True)
            (dropout): Dropout(p=0.1, inplace=False)
            (q_norm): Identity()
            (k_norm): Identity()
          )
          (feed_forward): PositionwiseFeedForward(
            (w_1): Linear(in_features=512, out_features=2048, bias=True)
            (w_2): Linear(in_features=2048, out_features=512, bias=True)
            (dropout): Dropout(p=0.1, inplace=False)
            (activation): ReLU()
          )
          (norm1): LayerNorm((512,), eps=1e-12, elementwise_affine=True)
          (norm2): LayerNorm((512,), eps=1e-12, elementwise_affine=True)
          (norm3): LayerNorm((512,), eps=1e-12, elementwise_affine=True)
          (dropout): Dropout(p=0.1, inplace=False)
        )
      )
    )
    (lm): TransformerLM(
      (embed): Embedding(5000, 128)
      (encoder): Encoder(
        (embed): Sequential(
          (0): Linear(in_features=128, out_features=512, bias=True)
          (1): LayerNorm((512,), eps=1e-05, elementwise_affine=True)
          (2): Dropout(p=0.0, inplace=False)
          (3): ReLU()
          (4): Sequential()
        )
        (encoders): MultiSequential(
          (0): EncoderLayer(
            (self_attn): MultiHeadedAttention(
              (linear_q): Linear(in_features=512, out_features=512, bias=True)
              (linear_k): Linear(in_features=512, out_features=512, bias=True)
              (linear_v): Linear(in_features=512, out_features=512, bias=True)
              (linear_out): Linear(in_features=512, out_features=512, bias=True)
              (dropout): Dropout(p=0.1, inplace=False)
              (q_norm): Identity()
              (k_norm): Identity()
            )
            (feed_forward): PositionwiseFeedForward(
              (w_1): Linear(in_features=512, out_features=2048, bias=True)
              (w_2): Linear(in_features=2048, out_features=512, bias=True)
              (dropout): Dropout(p=0.0, inplace=False)
              (activation): ReLU()
            )
            (norm1): LayerNorm((512,), eps=1e-12, elementwise_affine=True)
            (norm2): LayerNorm((512,), eps=1e-12, elementwise_affine=True)
            (dropout): Dropout(p=0.0, inplace=False)
          )
          (1): EncoderLayer(
            (self_attn): MultiHeadedAttention(
              (linear_q): Linear(in_features=512, out_features=512, bias=True)
              (linear_k): Linear(in_features=512, out_features=512, bias=True)
              (linear_v): Linear(in_features=512, out_features=512, bias=True)
              (linear_out): Linear(in_features=512, out_features=512, bias=True)
              (dropout): Dropout(p=0.1, inplace=False)
              (q_norm): Identity()
              (k_norm): Identity()
            )
            (feed_forward): PositionwiseFeedForward(
              (w_1): Linear(in_features=512, out_features=2048, bias=True)
              (w_2): Linear(in_features=2048, out_features=512, bias=True)
              (dropout): Dropout(p=0.0, inplace=False)
              (activation): ReLU()
            )
            (norm1): LayerNorm((512,), eps=1e-12, elementwise_affine=True)
            (norm2): LayerNorm((512,), eps=1e-12, elementwise_affine=True)
            (dropout): Dropout(p=0.0, inplace=False)
          )
          (2): EncoderLayer(
            (self_attn): MultiHeadedAttention(
              (linear_q): Linear(in_features=512, out_features=512, bias=True)
              (linear_k): Linear(in_features=512, out_features=512, bias=True)
              (linear_v): Linear(in_features=512, out_features=512, bias=True)
              (linear_out): Linear(in_features=512, out_features=512, bias=True)
              (dropout): Dropout(p=0.1, inplace=False)
              (q_norm): Identity()
              (k_norm): Identity()
            )
            (feed_forward): PositionwiseFeedForward(
              (w_1): Linear(in_features=512, out_features=2048, bias=True)
              (w_2): Linear(in_features=2048, out_features=512, bias=True)
              (dropout): Dropout(p=0.0, inplace=False)
              (activation): ReLU()
            )
            (norm1): LayerNorm((512,), eps=1e-12, elementwise_affine=True)
            (norm2): LayerNorm((512,), eps=1e-12, elementwise_affine=True)
            (dropout): Dropout(p=0.0, inplace=False)
          )
          (3): EncoderLayer(
            (self_attn): MultiHeadedAttention(
              (linear_q): Linear(in_features=512, out_features=512, bias=True)
              (linear_k): Linear(in_features=512, out_features=512, bias=True)
              (linear_v): Linear(in_features=512, out_features=512, bias=True)
              (linear_out): Linear(in_features=512, out_features=512, bias=True)
              (dropout): Dropout(p=0.1, inplace=False)
              (q_norm): Identity()
              (k_norm): Identity()
            )
            (feed_forward): PositionwiseFeedForward(
              (w_1): Linear(in_features=512, out_features=2048, bias=True)
              (w_2): Linear(in_features=2048, out_features=512, bias=True)
              (dropout): Dropout(p=0.0, inplace=False)
              (activation): ReLU()
            )
            (norm1): LayerNorm((512,), eps=1e-12, elementwise_affine=True)
            (norm2): LayerNorm((512,), eps=1e-12, elementwise_affine=True)
            (dropout): Dropout(p=0.0, inplace=False)
          )
          (4): EncoderLayer(
            (self_attn): MultiHeadedAttention(
              (linear_q): Linear(in_features=512, out_features=512, bias=True)
              (linear_k): Linear(in_features=512, out_features=512, bias=True)
              (linear_v): Linear(in_features=512, out_features=512, bias=True)
              (linear_out): Linear(in_features=512, out_features=512, bias=True)
              (dropout): Dropout(p=0.1, inplace=False)
              (q_norm): Identity()
              (k_norm): Identity()
            )
            (feed_forward): PositionwiseFeedForward(
              (w_1): Linear(in_features=512, out_features=2048, bias=True)
              (w_2): Linear(in_features=2048, out_features=512, bias=True)
              (dropout): Dropout(p=0.0, inplace=False)
              (activation): ReLU()
            )
            (norm1): LayerNorm((512,), eps=1e-12, elementwise_affine=True)
            (norm2): LayerNorm((512,), eps=1e-12, elementwise_affine=True)
            (dropout): Dropout(p=0.0, inplace=False)
          )
          (5): EncoderLayer(
            (self_attn): MultiHeadedAttention(
              (linear_q): Linear(in_features=512, out_features=512, bias=True)
              (linear_k): Linear(in_features=512, out_features=512, bias=True)
              (linear_v): Linear(in_features=512, out_features=512, bias=True)
              (linear_out): Linear(in_features=512, out_features=512, bias=True)
              (dropout): Dropout(p=0.1, inplace=False)
              (q_norm): Identity()
              (k_norm): Identity()
            )
            (feed_forward): PositionwiseFeedForward(
              (w_1): Linear(in_features=512, out_features=2048, bias=True)
              (w_2): Linear(in_features=2048, out_features=512, bias=True)
              (dropout): Dropout(p=0.0, inplace=False)
              (activation): ReLU()
            )
            (norm1): LayerNorm((512,), eps=1e-12, elementwise_affine=True)
            (norm2): LayerNorm((512,), eps=1e-12, elementwise_affine=True)
            (dropout): Dropout(p=0.0, inplace=False)
          )
          (6): EncoderLayer(
            (self_attn): MultiHeadedAttention(
              (linear_q): Linear(in_features=512, out_features=512, bias=True)
              (linear_k): Linear(in_features=512, out_features=512, bias=True)
              (linear_v): Linear(in_features=512, out_features=512, bias=True)
              (linear_out): Linear(in_features=512, out_features=512, bias=True)
              (dropout): Dropout(p=0.1, inplace=False)
              (q_norm): Identity()
              (k_norm): Identity()
            )
            (feed_forward): PositionwiseFeedForward(
              (w_1): Linear(in_features=512, out_features=2048, bias=True)
              (w_2): Linear(in_features=2048, out_features=512, bias=True)
              (dropout): Dropout(p=0.0, inplace=False)
              (activation): ReLU()
            )
            (norm1): LayerNorm((512,), eps=1e-12, elementwise_affine=True)
            (norm2): LayerNorm((512,), eps=1e-12, elementwise_affine=True)
            (dropout): Dropout(p=0.0, inplace=False)
          )
          (7): EncoderLayer(
            (self_attn): MultiHeadedAttention(
              (linear_q): Linear(in_features=512, out_features=512, bias=True)
              (linear_k): Linear(in_features=512, out_features=512, bias=True)
              (linear_v): Linear(in_features=512, out_features=512, bias=True)
              (linear_out): Linear(in_features=512, out_features=512, bias=True)
              (dropout): Dropout(p=0.1, inplace=False)
              (q_norm): Identity()
              (k_norm): Identity()
            )
            (feed_forward): PositionwiseFeedForward(
              (w_1): Linear(in_features=512, out_features=2048, bias=True)
              (w_2): Linear(in_features=2048, out_features=512, bias=True)
              (dropout): Dropout(p=0.0, inplace=False)
              (activation): ReLU()
            )
            (norm1): LayerNorm((512,), eps=1e-12, elementwise_affine=True)
            (norm2): LayerNorm((512,), eps=1e-12, elementwise_affine=True)
            (dropout): Dropout(p=0.0, inplace=False)
          )
          (8): EncoderLayer(
            (self_attn): MultiHeadedAttention(
              (linear_q): Linear(in_features=512, out_features=512, bias=True)
              (linear_k): Linear(in_features=512, out_features=512, bias=True)
              (linear_v): Linear(in_features=512, out_features=512, bias=True)
              (linear_out): Linear(in_features=512, out_features=512, bias=True)
              (dropout): Dropout(p=0.1, inplace=False)
              (q_norm): Identity()
              (k_norm): Identity()
            )
            (feed_forward): PositionwiseFeedForward(
              (w_1): Linear(in_features=512, out_features=2048, bias=True)
              (w_2): Linear(in_features=2048, out_features=512, bias=True)
              (dropout): Dropout(p=0.0, inplace=False)
              (activation): ReLU()
            )
            (norm1): LayerNorm((512,), eps=1e-12, elementwise_affine=True)
            (norm2): LayerNorm((512,), eps=1e-12, elementwise_affine=True)
            (dropout): Dropout(p=0.0, inplace=False)
          )
          (9): EncoderLayer(
            (self_attn): MultiHeadedAttention(
              (linear_q): Linear(in_features=512, out_features=512, bias=True)
              (linear_k): Linear(in_features=512, out_features=512, bias=True)
              (linear_v): Linear(in_features=512, out_features=512, bias=True)
              (linear_out): Linear(in_features=512, out_features=512, bias=True)
              (dropout): Dropout(p=0.1, inplace=False)
              (q_norm): Identity()
              (k_norm): Identity()
            )
            (feed_forward): PositionwiseFeedForward(
              (w_1): Linear(in_features=512, out_features=2048, bias=True)
              (w_2): Linear(in_features=2048, out_features=512, bias=True)
              (dropout): Dropout(p=0.0, inplace=False)
              (activation): ReLU()
            )
            (norm1): LayerNorm((512,), eps=1e-12, elementwise_affine=True)
            (norm2): LayerNorm((512,), eps=1e-12, elementwise_affine=True)
            (dropout): Dropout(p=0.0, inplace=False)
          )
          (10): EncoderLayer(
            (self_attn): MultiHeadedAttention(
              (linear_q): Linear(in_features=512, out_features=512, bias=True)
              (linear_k): Linear(in_features=512, out_features=512, bias=True)
              (linear_v): Linear(in_features=512, out_features=512, bias=True)
              (linear_out): Linear(in_features=512, out_features=512, bias=True)
              (dropout): Dropout(p=0.1, inplace=False)
              (q_norm): Identity()
              (k_norm): Identity()
            )
            (feed_forward): PositionwiseFeedForward(
              (w_1): Linear(in_features=512, out_features=2048, bias=True)
              (w_2): Linear(in_features=2048, out_features=512, bias=True)
              (dropout): Dropout(p=0.0, inplace=False)
              (activation): ReLU()
            )
            (norm1): LayerNorm((512,), eps=1e-12, elementwise_affine=True)
            (norm2): LayerNorm((512,), eps=1e-12, elementwise_affine=True)
            (dropout): Dropout(p=0.0, inplace=False)
          )
          (11): EncoderLayer(
            (self_attn): MultiHeadedAttention(
              (linear_q): Linear(in_features=512, out_features=512, bias=True)
              (linear_k): Linear(in_features=512, out_features=512, bias=True)
              (linear_v): Linear(in_features=512, out_features=512, bias=True)
              (linear_out): Linear(in_features=512, out_features=512, bias=True)
              (dropout): Dropout(p=0.1, inplace=False)
              (q_norm): Identity()
              (k_norm): Identity()
            )
            (feed_forward): PositionwiseFeedForward(
              (w_1): Linear(in_features=512, out_features=2048, bias=True)
              (w_2): Linear(in_features=2048, out_features=512, bias=True)
              (dropout): Dropout(p=0.0, inplace=False)
              (activation): ReLU()
            )
            (norm1): LayerNorm((512,), eps=1e-12, elementwise_affine=True)
            (norm2): LayerNorm((512,), eps=1e-12, elementwise_affine=True)
            (dropout): Dropout(p=0.0, inplace=False)
          )
          (12): EncoderLayer(
            (self_attn): MultiHeadedAttention(
              (linear_q): Linear(in_features=512, out_features=512, bias=True)
              (linear_k): Linear(in_features=512, out_features=512, bias=True)
              (linear_v): Linear(in_features=512, out_features=512, bias=True)
              (linear_out): Linear(in_features=512, out_features=512, bias=True)
              (dropout): Dropout(p=0.1, inplace=False)
              (q_norm): Identity()
              (k_norm): Identity()
            )
            (feed_forward): PositionwiseFeedForward(
              (w_1): Linear(in_features=512, out_features=2048, bias=True)
              (w_2): Linear(in_features=2048, out_features=512, bias=True)
              (dropout): Dropout(p=0.0, inplace=False)
              (activation): ReLU()
            )
            (norm1): LayerNorm((512,), eps=1e-12, elementwise_affine=True)
            (norm2): LayerNorm((512,), eps=1e-12, elementwise_affine=True)
            (dropout): Dropout(p=0.0, inplace=False)
          )
          (13): EncoderLayer(
            (self_attn): MultiHeadedAttention(
              (linear_q): Linear(in_features=512, out_features=512, bias=True)
              (linear_k): Linear(in_features=512, out_features=512, bias=True)
              (linear_v): Linear(in_features=512, out_features=512, bias=True)
              (linear_out): Linear(in_features=512, out_features=512, bias=True)
              (dropout): Dropout(p=0.1, inplace=False)
              (q_norm): Identity()
              (k_norm): Identity()
            )
            (feed_forward): PositionwiseFeedForward(
              (w_1): Linear(in_features=512, out_features=2048, bias=True)
              (w_2): Linear(in_features=2048, out_features=512, bias=True)
              (dropout): Dropout(p=0.0, inplace=False)
              (activation): ReLU()
            )
            (norm1): LayerNorm((512,), eps=1e-12, elementwise_affine=True)
            (norm2): LayerNorm((512,), eps=1e-12, elementwise_affine=True)
            (dropout): Dropout(p=0.0, inplace=False)
          )
          (14): EncoderLayer(
            (self_attn): MultiHeadedAttention(
              (linear_q): Linear(in_features=512, out_features=512, bias=True)
              (linear_k): Linear(in_features=512, out_features=512, bias=True)
              (linear_v): Linear(in_features=512, out_features=512, bias=True)
              (linear_out): Linear(in_features=512, out_features=512, bias=True)
              (dropout): Dropout(p=0.1, inplace=False)
              (q_norm): Identity()
              (k_norm): Identity()
            )
            (feed_forward): PositionwiseFeedForward(
              (w_1): Linear(in_features=512, out_features=2048, bias=True)
              (w_2): Linear(in_features=2048, out_features=512, bias=True)
              (dropout): Dropout(p=0.0, inplace=False)
              (activation): ReLU()
            )
            (norm1): LayerNorm((512,), eps=1e-12, elementwise_affine=True)
            (norm2): LayerNorm((512,), eps=1e-12, elementwise_affine=True)
            (dropout): Dropout(p=0.0, inplace=False)
          )
          (15): EncoderLayer(
            (self_attn): MultiHeadedAttention(
              (linear_q): Linear(in_features=512, out_features=512, bias=True)
              (linear_k): Linear(in_features=512, out_features=512, bias=True)
              (linear_v): Linear(in_features=512, out_features=512, bias=True)
              (linear_out): Linear(in_features=512, out_features=512, bias=True)
              (dropout): Dropout(p=0.1, inplace=False)
              (q_norm): Identity()
              (k_norm): Identity()
            )
            (feed_forward): PositionwiseFeedForward(
              (w_1): Linear(in_features=512, out_features=2048, bias=True)
              (w_2): Linear(in_features=2048, out_features=512, bias=True)
              (dropout): Dropout(p=0.0, inplace=False)
              (activation): ReLU()
            )
            (norm1): LayerNorm((512,), eps=1e-12, elementwise_affine=True)
            (norm2): LayerNorm((512,), eps=1e-12, elementwise_affine=True)
            (dropout): Dropout(p=0.0, inplace=False)
          )
        )
        (after_norm): LayerNorm((512,), eps=1e-12, elementwise_affine=True)
      )
      (decoder): Linear(in_features=512, out_features=5000, bias=True)
    )
  )
)
2025-04-17 12:12:40,444 - espnet2.bin.asr_inference - INFO - Decoding device=cuda, dtype=float32
2025-04-17 12:12:40,447 - espnet2.bin.asr_inference - INFO - Text tokenizer: SentencepiecesTokenizer(model="/home/ambuja/miniconda3/envs/emo-tts-new/lib/python3.8/site-packages/espnet_model_zoo/9366b56e39a93ce1189ae2a3fccb1475/data/en_token_list/bpe_unigram5000/bpe.model")
…
2025-04-17 12:43:22,584 - root - INFO - config file: /home/ambuja/miniconda3/envs/emo-tts-new/lib/python3.8/site-packages/espnet_model_zoo/models--espnet--shinji-watanabe-librispeech_asr_train_asr_transformer_e18_raw_bpe_sp_valid.acc.best/snapshots/bc6bbd771cec698f070640ee677a66719181f0a2/exp/lm_train_lm_adam_bpe/config.yaml
2025-04-17 12:43:23,388 - root - INFO - Vocabulary size: 5000
2025-04-17 12:43:24,762 - espnet2.bin.asr_inference - INFO - BatchBeamSearch implementation is selected.
2025-04-17 12:43:24,777 - espnet2.bin.asr_inference - INFO - Beam_search: BatchBeamSearch(
  (nn_dict): ModuleDict(
    (decoder): TransformerDecoder(
      (embed): Sequential(
        (0): Embedding(5000, 512)
        (1): PositionalEncoding(
          (dropout): Dropout(p=0.1, inplace=False)
        )
      )
      (after_norm): LayerNorm((512,), eps=1e-12, elementwise_affine=True)
      (output_layer): Linear(in_features=512, out_features=5000, bias=True)
      (decoders): MultiSequential(
        (0): DecoderLayer(
          (self_attn): MultiHeadedAttention(
            (linear_q): Linear(in_features=512, out_features=512, bias=True)
            (linear_k): Linear(in_features=512, out_features=512, bias=True)
            (linear_v): Linear(in_features=512, out_features=512, bias=True)
            (linear_out): Linear(in_features=512, out_features=512, bias=True)
            (dropout): Dropout(p=0.1, inplace=False)
            (q_norm): Identity()
            (k_norm): Identity()
          )
          (src_attn): MultiHeadedAttention(
            (linear_q): Linear(in_features=512, out_features=512, bias=True)
            (linear_k): Linear(in_features=512, out_features=512, bias=True)
            (linear_v): Linear(in_features=512, out_features=512, bias=True)
            (linear_out): Linear(in_features=512, out_features=512, bias=True)
            (dropout): Dropout(p=0.1, inplace=False)
            (q_norm): Identity()
            (k_norm): Identity()
          )
          (feed_forward): PositionwiseFeedForward(
            (w_1): Linear(in_features=512, out_features=2048, bias=True)
            (w_2): Linear(in_features=2048, out_features=512, bias=True)
            (dropout): Dropout(p=0.1, inplace=False)
            (activation): ReLU()
          )
          (norm1): LayerNorm((512,), eps=1e-12, elementwise_affine=True)
          (norm2): LayerNorm((512,), eps=1e-12, elementwise_affine=True)
          (norm3): LayerNorm((512,), eps=1e-12, elementwise_affine=True)
          (dropout): Dropout(p=0.1, inplace=False)
        )
        (1): DecoderLayer(
          (self_attn): MultiHeadedAttention(
            (linear_q): Linear(in_features=512, out_features=512, bias=True)
            (linear_k): Linear(in_features=512, out_features=512, bias=True)
            (linear_v): Linear(in_features=512, out_features=512, bias=True)
            (linear_out): Linear(in_features=512, out_features=512, bias=True)
            (dropout): Dropout(p=0.1, inplace=False)
            (q_norm): Identity()
            (k_norm): Identity()
          )
          (src_attn): MultiHeadedAttention(
            (linear_q): Linear(in_features=512, out_features=512, bias=True)
            (linear_k): Linear(in_features=512, out_features=512, bias=True)
            (linear_v): Linear(in_features=512, out_features=512, bias=True)
            (linear_out): Linear(in_features=512, out_features=512, bias=True)
            (dropout): Dropout(p=0.1, inplace=False)
            (q_norm): Identity()
            (k_norm): Identity()
          )
          (feed_forward): PositionwiseFeedForward(
            (w_1): Linear(in_features=512, out_features=2048, bias=True)
            (w_2): Linear(in_features=2048, out_features=512, bias=True)
            (dropout): Dropout(p=0.1, inplace=False)
            (activation): ReLU()
          )
          (norm1): LayerNorm((512,), eps=1e-12, elementwise_affine=True)
          (norm2): LayerNorm((512,), eps=1e-12, elementwise_affine=True)
          (norm3): LayerNorm((512,), eps=1e-12, elementwise_affine=True)
          (dropout): Dropout(p=0.1, inplace=False)
        )
        (2): DecoderLayer(
          (self_attn): MultiHeadedAttention(
            (linear_q): Linear(in_features=512, out_features=512, bias=True)
            (linear_k): Linear(in_features=512, out_features=512, bias=True)
            (linear_v): Linear(in_features=512, out_features=512, bias=True)
            (linear_out): Linear(in_features=512, out_features=512, bias=True)
            (dropout): Dropout(p=0.1, inplace=False)
            (q_norm): Identity()
            (k_norm): Identity()
          )
          (src_attn): MultiHeadedAttention(
            (linear_q): Linear(in_features=512, out_features=512, bias=True)
            (linear_k): Linear(in_features=512, out_features=512, bias=True)
            (linear_v): Linear(in_features=512, out_features=512, bias=True)
            (linear_out): Linear(in_features=512, out_features=512, bias=True)
            (dropout): Dropout(p=0.1, inplace=False)
            (q_norm): Identity()
            (k_norm): Identity()
          )
          (feed_forward): PositionwiseFeedForward(
            (w_1): Linear(in_features=512, out_features=2048, bias=True)
            (w_2): Linear(in_features=2048, out_features=512, bias=True)
            (dropout): Dropout(p=0.1, inplace=False)
            (activation): ReLU()
          )
          (norm1): LayerNorm((512,), eps=1e-12, elementwise_affine=True)
          (norm2): LayerNorm((512,), eps=1e-12, elementwise_affine=True)
          (norm3): LayerNorm((512,), eps=1e-12, elementwise_affine=True)
          (dropout): Dropout(p=0.1, inplace=False)
        )
        (3): DecoderLayer(
          (self_attn): MultiHeadedAttention(
            (linear_q): Linear(in_features=512, out_features=512, bias=True)
            (linear_k): Linear(in_features=512, out_features=512, bias=True)
            (linear_v): Linear(in_features=512, out_features=512, bias=True)
            (linear_out): Linear(in_features=512, out_features=512, bias=True)
            (dropout): Dropout(p=0.1, inplace=False)
            (q_norm): Identity()
            (k_norm): Identity()
          )
          (src_attn): MultiHeadedAttention(
            (linear_q): Linear(in_features=512, out_features=512, bias=True)
            (linear_k): Linear(in_features=512, out_features=512, bias=True)
            (linear_v): Linear(in_features=512, out_features=512, bias=True)
            (linear_out): Linear(in_features=512, out_features=512, bias=True)
            (dropout): Dropout(p=0.1, inplace=False)
            (q_norm): Identity()
            (k_norm): Identity()
          )
          (feed_forward): PositionwiseFeedForward(
            (w_1): Linear(in_features=512, out_features=2048, bias=True)
            (w_2): Linear(in_features=2048, out_features=512, bias=True)
            (dropout): Dropout(p=0.1, inplace=False)
            (activation): ReLU()
          )
          (norm1): LayerNorm((512,), eps=1e-12, elementwise_affine=True)
          (norm2): LayerNorm((512,), eps=1e-12, elementwise_affine=True)
          (norm3): LayerNorm((512,), eps=1e-12, elementwise_affine=True)
          (dropout): Dropout(p=0.1, inplace=False)
        )
        (4): DecoderLayer(
          (self_attn): MultiHeadedAttention(
            (linear_q): Linear(in_features=512, out_features=512, bias=True)
            (linear_k): Linear(in_features=512, out_features=512, bias=True)
            (linear_v): Linear(in_features=512, out_features=512, bias=True)
            (linear_out): Linear(in_features=512, out_features=512, bias=True)
            (dropout): Dropout(p=0.1, inplace=False)
            (q_norm): Identity()
            (k_norm): Identity()
          )
          (src_attn): MultiHeadedAttention(
            (linear_q): Linear(in_features=512, out_features=512, bias=True)
            (linear_k): Linear(in_features=512, out_features=512, bias=True)
            (linear_v): Linear(in_features=512, out_features=512, bias=True)
            (linear_out): Linear(in_features=512, out_features=512, bias=True)
            (dropout): Dropout(p=0.1, inplace=False)
            (q_norm): Identity()
            (k_norm): Identity()
          )
          (feed_forward): PositionwiseFeedForward(
            (w_1): Linear(in_features=512, out_features=2048, bias=True)
            (w_2): Linear(in_features=2048, out_features=512, bias=True)
            (dropout): Dropout(p=0.1, inplace=False)
            (activation): ReLU()
          )
          (norm1): LayerNorm((512,), eps=1e-12, elementwise_affine=True)
          (norm2): LayerNorm((512,), eps=1e-12, elementwise_affine=True)
          (norm3): LayerNorm((512,), eps=1e-12, elementwise_affine=True)
          (dropout): Dropout(p=0.1, inplace=False)
        )
        (5): DecoderLayer(
          (self_attn): MultiHeadedAttention(
            (linear_q): Linear(in_features=512, out_features=512, bias=True)
            (linear_k): Linear(in_features=512, out_features=512, bias=True)
            (linear_v): Linear(in_features=512, out_features=512, bias=True)
            (linear_out): Linear(in_features=512, out_features=512, bias=True)
            (dropout): Dropout(p=0.1, inplace=False)
            (q_norm): Identity()
            (k_norm): Identity()
          )
          (src_attn): MultiHeadedAttention(
            (linear_q): Linear(in_features=512, out_features=512, bias=True)
            (linear_k): Linear(in_features=512, out_features=512, bias=True)
            (linear_v): Linear(in_features=512, out_features=512, bias=True)
            (linear_out): Linear(in_features=512, out_features=512, bias=True)
            (dropout): Dropout(p=0.1, inplace=False)
            (q_norm): Identity()
            (k_norm): Identity()
          )
          (feed_forward): PositionwiseFeedForward(
            (w_1): Linear(in_features=512, out_features=2048, bias=True)
            (w_2): Linear(in_features=2048, out_features=512, bias=True)
            (dropout): Dropout(p=0.1, inplace=False)
            (activation): ReLU()
          )
          (norm1): LayerNorm((512,), eps=1e-12, elementwise_affine=True)
          (norm2): LayerNorm((512,), eps=1e-12, elementwise_affine=True)
          (norm3): LayerNorm((512,), eps=1e-12, elementwise_affine=True)
          (dropout): Dropout(p=0.1, inplace=False)
        )
      )
    )
    (lm): SequentialRNNLM(
      (drop): Dropout(p=0.0, inplace=False)
      (encoder): Embedding(5000, 2048, padding_idx=0)
      (rnn): LSTM(2048, 2048, num_layers=4, batch_first=True)
      (decoder): Linear(in_features=2048, out_features=5000, bias=True)
    )
  )
)
2025-04-17 12:43:24,778 - espnet2.bin.asr_inference - INFO - Decoding device=cuda, dtype=float32
2025-04-17 12:43:24,780 - espnet2.bin.asr_inference - INFO - Text tokenizer: SentencepiecesTokenizer(model="data/token_list/bpe_unigram5000/model.model")
2025-04-17 12:43:24,781 - asr_multi - INFO - Loaded ASR models: ['Conformer6', 'TransformerE18']
…
2025-04-17 13:20:00,011 - root - INFO - config file: /home/ambuja/miniconda3/envs/emo-tts-new/lib/python3.8/site-packages/espnet_model_zoo/models--pyf98--librispeech_conformer/snapshots/b74448c3b089eceea913735bd59a76d5252d8eec/exp/asr_train_asr_conformer8_raw_en_bpe5000_sp/config.yaml
2025-04-17 13:20:00,854 - root - INFO - Vocabulary size: 5000
2025-04-17 13:20:01,287 - root - INFO - Gradient checkpoint layers: []
2025-04-17 13:20:02,565 - espnet2.bin.asr_inference - INFO - BatchBeamSearch implementation is selected.
2025-04-17 13:20:02,579 - espnet2.bin.asr_inference - INFO - Beam_search: BatchBeamSearch(
  (nn_dict): ModuleDict(
    (decoder): TransformerDecoder(
      (embed): Sequential(
        (0): Embedding(5000, 512)
        (1): PositionalEncoding(
          (dropout): Dropout(p=0.1, inplace=False)
        )
      )
      (after_norm): LayerNorm((512,), eps=1e-12, elementwise_affine=True)
      (output_layer): Linear(in_features=512, out_features=5000, bias=True)
      (decoders): MultiSequential(
        (0): DecoderLayer(
          (self_attn): MultiHeadedAttention(
            (linear_q): Linear(in_features=512, out_features=512, bias=True)
            (linear_k): Linear(in_features=512, out_features=512, bias=True)
            (linear_v): Linear(in_features=512, out_features=512, bias=True)
            (linear_out): Linear(in_features=512, out_features=512, bias=True)
            (dropout): Dropout(p=0.1, inplace=False)
            (q_norm): Identity()
            (k_norm): Identity()
          )
          (src_attn): MultiHeadedAttention(
            (linear_q): Linear(in_features=512, out_features=512, bias=True)
            (linear_k): Linear(in_features=512, out_features=512, bias=True)
            (linear_v): Linear(in_features=512, out_features=512, bias=True)
            (linear_out): Linear(in_features=512, out_features=512, bias=True)
            (dropout): Dropout(p=0.1, inplace=False)
            (q_norm): Identity()
            (k_norm): Identity()
          )
          (feed_forward): PositionwiseFeedForward(
            (w_1): Linear(in_features=512, out_features=2048, bias=True)
            (w_2): Linear(in_features=2048, out_features=512, bias=True)
            (dropout): Dropout(p=0.1, inplace=False)
            (activation): ReLU()
          )
          (norm1): LayerNorm((512,), eps=1e-12, elementwise_affine=True)
          (norm2): LayerNorm((512,), eps=1e-12, elementwise_affine=True)
          (norm3): LayerNorm((512,), eps=1e-12, elementwise_affine=True)
          (dropout): Dropout(p=0.1, inplace=False)
        )
        (1): DecoderLayer(
          (self_attn): MultiHeadedAttention(
            (linear_q): Linear(in_features=512, out_features=512, bias=True)
            (linear_k): Linear(in_features=512, out_features=512, bias=True)
            (linear_v): Linear(in_features=512, out_features=512, bias=True)
            (linear_out): Linear(in_features=512, out_features=512, bias=True)
            (dropout): Dropout(p=0.1, inplace=False)
            (q_norm): Identity()
            (k_norm): Identity()
          )
          (src_attn): MultiHeadedAttention(
            (linear_q): Linear(in_features=512, out_features=512, bias=True)
            (linear_k): Linear(in_features=512, out_features=512, bias=True)
            (linear_v): Linear(in_features=512, out_features=512, bias=True)
            (linear_out): Linear(in_features=512, out_features=512, bias=True)
            (dropout): Dropout(p=0.1, inplace=False)
            (q_norm): Identity()
            (k_norm): Identity()
          )
          (feed_forward): PositionwiseFeedForward(
            (w_1): Linear(in_features=512, out_features=2048, bias=True)
            (w_2): Linear(in_features=2048, out_features=512, bias=True)
            (dropout): Dropout(p=0.1, inplace=False)
            (activation): ReLU()
          )
          (norm1): LayerNorm((512,), eps=1e-12, elementwise_affine=True)
          (norm2): LayerNorm((512,), eps=1e-12, elementwise_affine=True)
          (norm3): LayerNorm((512,), eps=1e-12, elementwise_affine=True)
          (dropout): Dropout(p=0.1, inplace=False)
        )
        (2): DecoderLayer(
          (self_attn): MultiHeadedAttention(
            (linear_q): Linear(in_features=512, out_features=512, bias=True)
            (linear_k): Linear(in_features=512, out_features=512, bias=True)
            (linear_v): Linear(in_features=512, out_features=512, bias=True)
            (linear_out): Linear(in_features=512, out_features=512, bias=True)
            (dropout): Dropout(p=0.1, inplace=False)
            (q_norm): Identity()
            (k_norm): Identity()
          )
          (src_attn): MultiHeadedAttention(
            (linear_q): Linear(in_features=512, out_features=512, bias=True)
            (linear_k): Linear(in_features=512, out_features=512, bias=True)
            (linear_v): Linear(in_features=512, out_features=512, bias=True)
            (linear_out): Linear(in_features=512, out_features=512, bias=True)
            (dropout): Dropout(p=0.1, inplace=False)
            (q_norm): Identity()
            (k_norm): Identity()
          )
          (feed_forward): PositionwiseFeedForward(
            (w_1): Linear(in_features=512, out_features=2048, bias=True)
            (w_2): Linear(in_features=2048, out_features=512, bias=True)
            (dropout): Dropout(p=0.1, inplace=False)
            (activation): ReLU()
          )
          (norm1): LayerNorm((512,), eps=1e-12, elementwise_affine=True)
          (norm2): LayerNorm((512,), eps=1e-12, elementwise_affine=True)
          (norm3): LayerNorm((512,), eps=1e-12, elementwise_affine=True)
          (dropout): Dropout(p=0.1, inplace=False)
        )
        (3): DecoderLayer(
          (self_attn): MultiHeadedAttention(
            (linear_q): Linear(in_features=512, out_features=512, bias=True)
            (linear_k): Linear(in_features=512, out_features=512, bias=True)
            (linear_v): Linear(in_features=512, out_features=512, bias=True)
            (linear_out): Linear(in_features=512, out_features=512, bias=True)
            (dropout): Dropout(p=0.1, inplace=False)
            (q_norm): Identity()
            (k_norm): Identity()
          )
          (src_attn): MultiHeadedAttention(
            (linear_q): Linear(in_features=512, out_features=512, bias=True)
            (linear_k): Linear(in_features=512, out_features=512, bias=True)
            (linear_v): Linear(in_features=512, out_features=512, bias=True)
            (linear_out): Linear(in_features=512, out_features=512, bias=True)
            (dropout): Dropout(p=0.1, inplace=False)
            (q_norm): Identity()
            (k_norm): Identity()
          )
          (feed_forward): PositionwiseFeedForward(
            (w_1): Linear(in_features=512, out_features=2048, bias=True)
            (w_2): Linear(in_features=2048, out_features=512, bias=True)
            (dropout): Dropout(p=0.1, inplace=False)
            (activation): ReLU()
          )
          (norm1): LayerNorm((512,), eps=1e-12, elementwise_affine=True)
          (norm2): LayerNorm((512,), eps=1e-12, elementwise_affine=True)
          (norm3): LayerNorm((512,), eps=1e-12, elementwise_affine=True)
          (dropout): Dropout(p=0.1, inplace=False)
        )
        (4): DecoderLayer(
          (self_attn): MultiHeadedAttention(
            (linear_q): Linear(in_features=512, out_features=512, bias=True)
            (linear_k): Linear(in_features=512, out_features=512, bias=True)
            (linear_v): Linear(in_features=512, out_features=512, bias=True)
            (linear_out): Linear(in_features=512, out_features=512, bias=True)
            (dropout): Dropout(p=0.1, inplace=False)
            (q_norm): Identity()
            (k_norm): Identity()
          )
          (src_attn): MultiHeadedAttention(
            (linear_q): Linear(in_features=512, out_features=512, bias=True)
            (linear_k): Linear(in_features=512, out_features=512, bias=True)
            (linear_v): Linear(in_features=512, out_features=512, bias=True)
            (linear_out): Linear(in_features=512, out_features=512, bias=True)
            (dropout): Dropout(p=0.1, inplace=False)
            (q_norm): Identity()
            (k_norm): Identity()
          )
          (feed_forward): PositionwiseFeedForward(
            (w_1): Linear(in_features=512, out_features=2048, bias=True)
            (w_2): Linear(in_features=2048, out_features=512, bias=True)
            (dropout): Dropout(p=0.1, inplace=False)
            (activation): ReLU()
          )
          (norm1): LayerNorm((512,), eps=1e-12, elementwise_affine=True)
          (norm2): LayerNorm((512,), eps=1e-12, elementwise_affine=True)
          (norm3): LayerNorm((512,), eps=1e-12, elementwise_affine=True)
          (dropout): Dropout(p=0.1, inplace=False)
        )
        (5): DecoderLayer(
          (self_attn): MultiHeadedAttention(
            (linear_q): Linear(in_features=512, out_features=512, bias=True)
            (linear_k): Linear(in_features=512, out_features=512, bias=True)
            (linear_v): Linear(in_features=512, out_features=512, bias=True)
            (linear_out): Linear(in_features=512, out_features=512, bias=True)
            (dropout): Dropout(p=0.1, inplace=False)
            (q_norm): Identity()
            (k_norm): Identity()
          )
          (src_attn): MultiHeadedAttention(
            (linear_q): Linear(in_features=512, out_features=512, bias=True)
            (linear_k): Linear(in_features=512, out_features=512, bias=True)
            (linear_v): Linear(in_features=512, out_features=512, bias=True)
            (linear_out): Linear(in_features=512, out_features=512, bias=True)
            (dropout): Dropout(p=0.1, inplace=False)
            (q_norm): Identity()
            (k_norm): Identity()
          )
          (feed_forward): PositionwiseFeedForward(
            (w_1): Linear(in_features=512, out_features=2048, bias=True)
            (w_2): Linear(in_features=2048, out_features=512, bias=True)
            (dropout): Dropout(p=0.1, inplace=False)
            (activation): ReLU()
          )
          (norm1): LayerNorm((512,), eps=1e-12, elementwise_affine=True)
          (norm2): LayerNorm((512,), eps=1e-12, elementwise_affine=True)
          (norm3): LayerNorm((512,), eps=1e-12, elementwise_affine=True)
          (dropout): Dropout(p=0.1, inplace=False)
        )
      )
    )
  )
)
2025-04-17 13:20:02,583 - espnet2.bin.asr_inference - INFO - Decoding device=cuda, dtype=float32
2025-04-17 13:20:02,586 - espnet2.bin.asr_inference - INFO - Text tokenizer: SentencepiecesTokenizer(model="/home/ambuja/miniconda3/envs/emo-tts-new/lib/python3.8/site-packages/espnet_model_zoo/models--pyf98--librispeech_conformer/snapshots/b74448c3b089eceea913735bd59a76d5252d8eec/data/en_token_list/bpe_unigram5000/bpe.model")
…
